…
To enable the following instructions: AVX2 AVX512F AVX512_VNNI AVX512_BF16 AVX_VNNI FMA, in other operations, rebuild TensorFlow with the appropriate compiler flags.
Namespace(variant='custom', image_size=64, conv_dim=32, noise_size=100, num_epochs=500, batch_size=16, num_workers=2, lr=0.0002, beta1=0.5, beta2=0.999, n_critic=5, lambda_gp=10.0, data='cat/grumpifyBprocessed', data_preprocess='advanced', ext='*.png', checkpoint_dir='checkpoints/custom', sample_dir='output/custom/grumpifyBprocessed_advanced', log_step=10, sample_every=200, checkpoint_every=400)
data/cat/grumpifyBprocessed/*.png
204
Models moved to GPU.
                    G                  
CustomGenerator(
  (up_conv1): Sequential(
    (0): Conv2d(100, 256, kernel_size=(4, 4), stride=(1, 1), padding=(3, 3), bias=False)
    (1): InstanceNorm2d(256, eps=1e-05, momentum=0.1, affine=False, track_running_stats=False)
    (2): ReLU()
  )
  (res1): ResnetBlock(
    (conv_layer): Sequential(
      (0): Conv2d(256, 256, kernel_size=(3, 3), stride=(1, 1), padding=(1, 1), bias=False)
      (1): InstanceNorm2d(256, eps=1e-05, momentum=0.1, affine=False, track_running_stats=False)
      (2): ReLU()
    )
  )
  (up_conv2): Sequential(
    (0): Upsample(scale_factor=2.0, mode='nearest')
    (1): Conv2d(256, 128, kernel_size=(3, 3), stride=(1, 1), padding=(1, 1), bias=False)
    (2): InstanceNorm2d(128, eps=1e-05, momentum=0.1, affine=False, track_running_stats=False)
    (3): ReLU()
  )
  (res2): ResnetBlock(
    (conv_layer): Sequential(
      (0): Conv2d(128, 128, kernel_size=(3, 3), stride=(1, 1), padding=(1, 1), bias=False)
      (1): InstanceNorm2d(128, eps=1e-05, momentum=0.1, affine=False, track_running_stats=False)
      (2): ReLU()
    )
  )
  (up_conv3): Sequential(
    (0): Upsample(scale_factor=2.0, mode='nearest')
    (1): Conv2d(128, 64, kernel_size=(3, 3), stride=(1, 1), padding=(1, 1), bias=False)
    (2): InstanceNorm2d(64, eps=1e-05, momentum=0.1, affine=False, track_running_stats=False)
    (3): ReLU()
  )
  (res3): ResnetBlock(
    (conv_layer): Sequential(
      (0): Conv2d(64, 64, kernel_size=(3, 3), stride=(1, 1), padding=(1, 1), bias=False)
      (1): InstanceNorm2d(64, eps=1e-05, momentum=0.1, affine=False, track_running_stats=False)
      (2): ReLU()
    )
  )
  (up_conv4): Sequential(
    (0): Upsample(scale_factor=2.0, mode='nearest')
    (1): Conv2d(64, 32, kernel_size=(3, 3), stride=(1, 1), padding=(1, 1), bias=False)
    (2): InstanceNorm2d(32, eps=1e-05, momentum=0.1, affine=False, track_running_stats=False)
    (3): ReLU()
  )
  (up_conv5): Sequential(
    (0): Upsample(scale_factor=2.0, mode='nearest')
    (1): Conv2d(32, 3, kernel_size=(3, 3), stride=(1, 1), padding=(1, 1))
    (2): Tanh()
  )
)
                    D                  
CustomDiscriminator(
  (conv1): Sequential(
    (0): SpectralNorm(
      (module): Conv2d(3, 32, kernel_size=(4, 4), stride=(2, 2), padding=(1, 1))
    )
    (1): LeakyReLU(negative_slope=0.2)
  )
  (conv2): Sequential(
    (0): SpectralNorm(
      (module): Conv2d(32, 64, kernel_size=(4, 4), stride=(2, 2), padding=(1, 1))
    )
    (1): LeakyReLU(negative_slope=0.2)
  )
  (res2): SNResBlock(
    (sn_conv1): SpectralNorm(
      (module): Conv2d(64, 64, kernel_size=(3, 3), stride=(1, 1), padding=(1, 1))
    )
    (sn_conv2): SpectralNorm(
      (module): Conv2d(64, 64, kernel_size=(3, 3), stride=(1, 1), padding=(1, 1))
    )
    (act): LeakyReLU(negative_slope=0.2)
  )
  (conv3): Sequential(
    (0): SpectralNorm(
      (module): Conv2d(64, 128, kernel_size=(4, 4), stride=(2, 2), padding=(1, 1))
    )
    (1): LeakyReLU(negative_slope=0.2)
  )
  (res3): SNResBlock(
    (sn_conv1): SpectralNorm(
      (module): Conv2d(128, 128, kernel_size=(3, 3), stride=(1, 1), padding=(1, 1))
    )
    (sn_conv2): SpectralNorm(
      (module): Conv2d(128, 128, kernel_size=(3, 3), stride=(1, 1), padding=(1, 1))
    )
    (act): LeakyReLU(negative_slope=0.2)
  )
  (conv4): Sequential(
    (0): SpectralNorm(
      (module): Conv2d(128, 256, kernel_size=(4, 4), stride=(2, 2), padding=(1, 1))
    )
    (1): LeakyReLU(negative_slope=0.2)
  )
  (conv5): SpectralNorm(
    (module): Conv2d(256, 1, kernel_size=(4, 4), stride=(1, 1))
  )
)
Iter [   10/6500] | D_loss: 0.1575 | G_loss: 0.3993
Iter [   20/6500] | D_loss: 0.1115 | G_loss: 0.4636
Iter [   30/6500] | D_loss: 0.2178 | G_loss: 0.2074
Iter [   40/6500] | D_loss: 0.2126 | G_loss: 0.2502
Iter [   50/6500] | D_loss: 0.1980 | G_loss: 0.3624
Iter [   60/6500] | D_loss: 0.1507 | G_loss: 0.4918
Iter [   70/6500] | D_loss: 0.2865 | G_loss: 0.2095
…
